Number of Model Parameters: 1292161
DistributedDataParallel(
  (module): LNO(
    (act): GELU(approximate='none')
    (trunk_projector): MLP(
      (act): GELU(approximate='none')
      (input): Linear(in_features=2, out_features=128, bias=True)
      (hidden): ModuleList(
        (0-1): 2 x Linear(in_features=128, out_features=128, bias=True)
      )
      (output): Linear(in_features=128, out_features=128, bias=True)
    )
    (branch_projector): MLP(
      (act): GELU(approximate='none')
      (input): Linear(in_features=4, out_features=128, bias=True)
      (hidden): ModuleList(
        (0-1): 2 x Linear(in_features=128, out_features=128, bias=True)
      )
      (output): Linear(in_features=128, out_features=128, bias=True)
    )
    (out_mlp): MLP(
      (act): GELU(approximate='none')
      (input): Linear(in_features=128, out_features=128, bias=True)
      (hidden): ModuleList(
        (0-1): 2 x Linear(in_features=128, out_features=128, bias=True)
      )
      (output): Linear(in_features=128, out_features=1, bias=True)
    )
    (attention_projector): MLP(
      (act): GELU(approximate='none')
      (input): Linear(in_features=128, out_features=128, bias=True)
      (hidden): ModuleList(
        (0-1): 2 x Linear(in_features=128, out_features=128, bias=True)
      )
      (output): Linear(in_features=128, out_features=256, bias=True)
    )
    (attn_blocks): Sequential(
      (0): AttentionBlock(
        (act): GELU(approximate='none')
        (self_attn): SelfAttention(
          (Wq): Linear(in_features=128, out_features=128, bias=True)
          (Wk): Linear(in_features=128, out_features=128, bias=True)
          (Wv): Linear(in_features=128, out_features=128, bias=True)
          (proj): Linear(in_features=128, out_features=128, bias=True)
        )
        (ln1): LayerNorm((128,), eps=1e-05, elementwise_affine=True)
        (ln2): LayerNorm((128,), eps=1e-05, elementwise_affine=True)
        (drop): Dropout(p=0.0, inplace=False)
        (mlp): Sequential(
          (0): Linear(in_features=128, out_features=256, bias=True)
          (1): GELU(approximate='none')
          (2): Linear(in_features=256, out_features=128, bias=True)
        )
      )
      (1): AttentionBlock(
        (act): GELU(approximate='none')
        (self_attn): SelfAttention(
          (Wq): Linear(in_features=128, out_features=128, bias=True)
          (Wk): Linear(in_features=128, out_features=128, bias=True)
          (Wv): Linear(in_features=128, out_features=128, bias=True)
          (proj): Linear(in_features=128, out_features=128, bias=True)
        )
        (ln1): LayerNorm((128,), eps=1e-05, elementwise_affine=True)
        (ln2): LayerNorm((128,), eps=1e-05, elementwise_affine=True)
        (drop): Dropout(p=0.0, inplace=False)
        (mlp): Sequential(
          (0): Linear(in_features=128, out_features=256, bias=True)
          (1): GELU(approximate='none')
          (2): Linear(in_features=256, out_features=128, bias=True)
        )
      )
      (2): AttentionBlock(
        (act): GELU(approximate='none')
        (self_attn): SelfAttention(
          (Wq): Linear(in_features=128, out_features=128, bias=True)
          (Wk): Linear(in_features=128, out_features=128, bias=True)
          (Wv): Linear(in_features=128, out_features=128, bias=True)
          (proj): Linear(in_features=128, out_features=128, bias=True)
        )
        (ln1): LayerNorm((128,), eps=1e-05, elementwise_affine=True)
        (ln2): LayerNorm((128,), eps=1e-05, elementwise_affine=True)
        (drop): Dropout(p=0.0, inplace=False)
        (mlp): Sequential(
          (0): Linear(in_features=128, out_features=256, bias=True)
          (1): GELU(approximate='none')
          (2): Linear(in_features=256, out_features=128, bias=True)
        )
      )
      (3): AttentionBlock(
        (act): GELU(approximate='none')
        (self_attn): SelfAttention(
          (Wq): Linear(in_features=128, out_features=128, bias=True)
          (Wk): Linear(in_features=128, out_features=128, bias=True)
          (Wv): Linear(in_features=128, out_features=128, bias=True)
          (proj): Linear(in_features=128, out_features=128, bias=True)
        )
        (ln1): LayerNorm((128,), eps=1e-05, elementwise_affine=True)
        (ln2): LayerNorm((128,), eps=1e-05, elementwise_affine=True)
        (drop): Dropout(p=0.0, inplace=False)
        (mlp): Sequential(
          (0): Linear(in_features=128, out_features=256, bias=True)
          (1): GELU(approximate='none')
          (2): Linear(in_features=256, out_features=128, bias=True)
        )
      )
      (4): AttentionBlock(
        (act): GELU(approximate='none')
        (self_attn): SelfAttention(
          (Wq): Linear(in_features=128, out_features=128, bias=True)
          (Wk): Linear(in_features=128, out_features=128, bias=True)
          (Wv): Linear(in_features=128, out_features=128, bias=True)
          (proj): Linear(in_features=128, out_features=128, bias=True)
        )
        (ln1): LayerNorm((128,), eps=1e-05, elementwise_affine=True)
        (ln2): LayerNorm((128,), eps=1e-05, elementwise_affine=True)
        (drop): Dropout(p=0.0, inplace=False)
        (mlp): Sequential(
          (0): Linear(in_features=128, out_features=256, bias=True)
          (1): GELU(approximate='none')
          (2): Linear(in_features=256, out_features=128, bias=True)
        )
      )
      (5): AttentionBlock(
        (act): GELU(approximate='none')
        (self_attn): SelfAttention(
          (Wq): Linear(in_features=128, out_features=128, bias=True)
          (Wk): Linear(in_features=128, out_features=128, bias=True)
          (Wv): Linear(in_features=128, out_features=128, bias=True)
          (proj): Linear(in_features=128, out_features=128, bias=True)
        )
        (ln1): LayerNorm((128,), eps=1e-05, elementwise_affine=True)
        (ln2): LayerNorm((128,), eps=1e-05, elementwise_affine=True)
        (drop): Dropout(p=0.0, inplace=False)
        (mlp): Sequential(
          (0): Linear(in_features=128, out_features=256, bias=True)
          (1): GELU(approximate='none')
          (2): Linear(in_features=256, out_features=128, bias=True)
        )
      )
      (6): AttentionBlock(
        (act): GELU(approximate='none')
        (self_attn): SelfAttention(
          (Wq): Linear(in_features=128, out_features=128, bias=True)
          (Wk): Linear(in_features=128, out_features=128, bias=True)
          (Wv): Linear(in_features=128, out_features=128, bias=True)
          (proj): Linear(in_features=128, out_features=128, bias=True)
        )
        (ln1): LayerNorm((128,), eps=1e-05, elementwise_affine=True)
        (ln2): LayerNorm((128,), eps=1e-05, elementwise_affine=True)
        (drop): Dropout(p=0.0, inplace=False)
        (mlp): Sequential(
          (0): Linear(in_features=128, out_features=256, bias=True)
          (1): GELU(approximate='none')
          (2): Linear(in_features=256, out_features=128, bias=True)
        )
      )
      (7): AttentionBlock(
        (act): GELU(approximate='none')
        (self_attn): SelfAttention(
          (Wq): Linear(in_features=128, out_features=128, bias=True)
          (Wk): Linear(in_features=128, out_features=128, bias=True)
          (Wv): Linear(in_features=128, out_features=128, bias=True)
          (proj): Linear(in_features=128, out_features=128, bias=True)
        )
        (ln1): LayerNorm((128,), eps=1e-05, elementwise_affine=True)
        (ln2): LayerNorm((128,), eps=1e-05, elementwise_affine=True)
        (drop): Dropout(p=0.0, inplace=False)
        (mlp): Sequential(
          (0): Linear(in_features=128, out_features=256, bias=True)
          (1): GELU(approximate='none')
          (2): Linear(in_features=256, out_features=128, bias=True)
        )
      )
    )
  )
)
Start Training...
Epoch: 1	Learning Rate :3.467148803248856e-07	Train Loss: 1.3279709815979004	Val Loss: 1.107131838798523
Epoch: 2	Learning Rate :1.0866160240210424e-06	Train Loss: 0.6282344460487366	Val Loss: 0.15580739080905914
Epoch: 3	Learning Rate :2.3189731795749714e-06	Train Loss: 0.1599586009979248	Val Loss: 0.1534910649061203
…
