Number of Model Parameters: 762113
DistributedDataParallel(
  (module): LNO(
    (act): GELU(approximate='none')
    (trunk_projector): MLP(
      (act): GELU(approximate='none')
      (input): Linear(in_features=2, out_features=128, bias=True)
      (hidden): ModuleList(
        (0-1): 2 x Linear(in_features=128, out_features=128, bias=True)
      )
      (output): Linear(in_features=128, out_features=128, bias=True)
    )
    (branch_projector): MLP(
      (act): GELU(approximate='none')
      (input): Linear(in_features=3, out_features=128, bias=True)
      (hidden): ModuleList(
        (0-1): 2 x Linear(in_features=128, out_features=128, bias=True)
      )
      (output): Linear(in_features=128, out_features=128, bias=True)
    )
    (out_mlp): MLP(
      (act): GELU(approximate='none')
      (input): Linear(in_features=128, out_features=128, bias=True)
      (hidden): ModuleList(
        (0-1): 2 x Linear(in_features=128, out_features=128, bias=True)
      )
      (output): Linear(in_features=128, out_features=1, bias=True)
    )
    (attention_projector): MLP(
      (act): GELU(approximate='none')
      (input): Linear(in_features=128, out_features=128, bias=True)
      (hidden): ModuleList(
        (0-1): 2 x Linear(in_features=128, out_features=128, bias=True)
      )
      (output): Linear(in_features=128, out_features=256, bias=True)
    )
    (attn_blocks): Sequential(
      (0): AttentionBlock(
        (act): GELU(approximate='none')
        (self_attn): SelfAttention(
          (Wq): Linear(in_features=128, out_features=128, bias=True)
          (Wk): Linear(in_features=128, out_features=128, bias=True)
          (Wv): Linear(in_features=128, out_features=128, bias=True)
          (proj): Linear(in_features=128, out_features=128, bias=True)
        )
        (ln1): LayerNorm((128,), eps=1e-05, elementwise_affine=True)
        (ln2): LayerNorm((128,), eps=1e-05, elementwise_affine=True)
        (drop): Dropout(p=0.0, inplace=False)
        (mlp): Sequential(
          (0): Linear(in_features=128, out_features=256, bias=True)
          (1): GELU(approximate='none')
          (2): Linear(in_features=256, out_features=128, bias=True)
        )
      )
      (1): AttentionBlock(
        (act): GELU(approximate='none')
        (self_attn): SelfAttention(
          (Wq): Linear(in_features=128, out_features=128, bias=True)
          (Wk): Linear(in_features=128, out_features=128, bias=True)
          (Wv): Linear(in_features=128, out_features=128, bias=True)
          (proj): Linear(in_features=128, out_features=128, bias=True)
        )
        (ln1): LayerNorm((128,), eps=1e-05, elementwise_affine=True)
        (ln2): LayerNorm((128,), eps=1e-05, elementwise_affine=True)
        (drop): Dropout(p=0.0, inplace=False)
        (mlp): Sequential(
          (0): Linear(in_features=128, out_features=256, bias=True)
          (1): GELU(approximate='none')
          (2): Linear(in_features=256, out_features=128, bias=True)
        )
      )
      (2): AttentionBlock(
        (act): GELU(approximate='none')
        (self_attn): SelfAttention(
          (Wq): Linear(in_features=128, out_features=128, bias=True)
          (Wk): Linear(in_features=128, out_features=128, bias=True)
          (Wv): Linear(in_features=128, out_features=128, bias=True)
          (proj): Linear(in_features=128, out_features=128, bias=True)
        )
        (ln1): LayerNorm((128,), eps=1e-05, elementwise_affine=True)
        (ln2): LayerNorm((128,), eps=1e-05, elementwise_affine=True)
        (drop): Dropout(p=0.0, inplace=False)
        (mlp): Sequential(
          (0): Linear(in_features=128, out_features=256, bias=True)
          (1): GELU(approximate='none')
          (2): Linear(in_features=256, out_features=128, bias=True)
        )
      )
      (3): AttentionBlock(
        (act): GELU(approximate='none')
        (self_attn): SelfAttention(
          (Wq): Linear(in_features=128, out_features=128, bias=True)
          (Wk): Linear(in_features=128, out_features=128, bias=True)
          (Wv): Linear(in_features=128, out_features=128, bias=True)
          (proj): Linear(in_features=128, out_features=128, bias=True)
        )
        (ln1): LayerNorm((128,), eps=1e-05, elementwise_affine=True)
        (ln2): LayerNorm((128,), eps=1e-05, elementwise_affine=True)
        (drop): Dropout(p=0.0, inplace=False)
        (mlp): Sequential(
          (0): Linear(in_features=128, out_features=256, bias=True)
          (1): GELU(approximate='none')
          (2): Linear(in_features=256, out_features=128, bias=True)
        )
      )
    )
  )
)
Start Training...
Epoch: 1	Learning Rate :3.467144177547992e-07	Train Loss: 1.0076578855514526	Val Loss: 0.5594943165779114
Epoch: 2	Learning Rate :1.0866141746533782e-06	Train Loss: 0.9973044991493225	Val Loss: 0.5573230385780334
Epoch: 3	Learning Rate :2.318969021920282e-06	Train Loss: 0.9947105050086975	Val Loss: 0.5557128190994263
…
