Number of Model Parameters: 1831745
DistributedDataParallel(
  (module): LNO(
    (act): GELU(approximate='none')
    (trunk_projector): MLP(
      (act): GELU(approximate='none')
      (input): Linear(in_features=2, out_features=192, bias=True)
      (hidden): ModuleList(
        (0-2): 3 x Linear(in_features=192, out_features=192, bias=True)
      )
      (output): Linear(in_features=192, out_features=192, bias=True)
    )
    (branch_projector): MLP(
      (act): GELU(approximate='none')
      (input): Linear(in_features=2, out_features=192, bias=True)
      (hidden): ModuleList(
        (0-2): 3 x Linear(in_features=192, out_features=192, bias=True)
      )
      (output): Linear(in_features=192, out_features=192, bias=True)
    )
    (out_mlp): MLP(
      (act): GELU(approximate='none')
      (input): Linear(in_features=192, out_features=192, bias=True)
      (hidden): ModuleList(
        (0-2): 3 x Linear(in_features=192, out_features=192, bias=True)
      )
      (output): Linear(in_features=192, out_features=1, bias=True)
    )
    (attention_projector): MLP(
      (act): GELU(approximate='none')
      (input): Linear(in_features=192, out_features=192, bias=True)
      (hidden): ModuleList(
        (0-2): 3 x Linear(in_features=192, out_features=192, bias=True)
      )
      (output): Linear(in_features=192, out_features=256, bias=True)
    )
    (attn_blocks): Sequential(
      (0): AttentionBlock(
        (act): GELU(approximate='none')
        (self_attn): SelfAttention(
          (Wq): Linear(in_features=192, out_features=192, bias=True)
          (Wk): Linear(in_features=192, out_features=192, bias=True)
          (Wv): Linear(in_features=192, out_features=192, bias=True)
          (proj): Linear(in_features=192, out_features=192, bias=True)
        )
        (ln1): LayerNorm((192,), eps=1e-05, elementwise_affine=True)
        (ln2): LayerNorm((192,), eps=1e-05, elementwise_affine=True)
        (drop): Dropout(p=0.0, inplace=False)
        (mlp): Sequential(
          (0): Linear(in_features=192, out_features=384, bias=True)
          (1): GELU(approximate='none')
          (2): Linear(in_features=384, out_features=192, bias=True)
        )
      )
      (1): AttentionBlock(
        (act): GELU(approximate='none')
        (self_attn): SelfAttention(
          (Wq): Linear(in_features=192, out_features=192, bias=True)
          (Wk): Linear(in_features=192, out_features=192, bias=True)
          (Wv): Linear(in_features=192, out_features=192, bias=True)
          (proj): Linear(in_features=192, out_features=192, bias=True)
        )
        (ln1): LayerNorm((192,), eps=1e-05, elementwise_affine=True)
        (ln2): LayerNorm((192,), eps=1e-05, elementwise_affine=True)
        (drop): Dropout(p=0.0, inplace=False)
        (mlp): Sequential(
          (0): Linear(in_features=192, out_features=384, bias=True)
          (1): GELU(approximate='none')
          (2): Linear(in_features=384, out_features=192, bias=True)
        )
      )
      (2): AttentionBlock(
        (act): GELU(approximate='none')
        (self_attn): SelfAttention(
          (Wq): Linear(in_features=192, out_features=192, bias=True)
          (Wk): Linear(in_features=192, out_features=192, bias=True)
          (Wv): Linear(in_features=192, out_features=192, bias=True)
          (proj): Linear(in_features=192, out_features=192, bias=True)
        )
        (ln1): LayerNorm((192,), eps=1e-05, elementwise_affine=True)
        (ln2): LayerNorm((192,), eps=1e-05, elementwise_affine=True)
        (drop): Dropout(p=0.0, inplace=False)
        (mlp): Sequential(
          (0): Linear(in_features=192, out_features=384, bias=True)
          (1): GELU(approximate='none')
          (2): Linear(in_features=384, out_features=192, bias=True)
        )
      )
      (3): AttentionBlock(
        (act): GELU(approximate='none')
        (self_attn): SelfAttention(
          (Wq): Linear(in_features=192, out_features=192, bias=True)
          (Wk): Linear(in_features=192, out_features=192, bias=True)
          (Wv): Linear(in_features=192, out_features=192, bias=True)
          (proj): Linear(in_features=192, out_features=192, bias=True)
        )
        (ln1): LayerNorm((192,), eps=1e-05, elementwise_affine=True)
        (ln2): LayerNorm((192,), eps=1e-05, elementwise_affine=True)
        (drop): Dropout(p=0.0, inplace=False)
        (mlp): Sequential(
          (0): Linear(in_features=192, out_features=384, bias=True)
          (1): GELU(approximate='none')
          (2): Linear(in_features=384, out_features=192, bias=True)
        )
      )
    )
  )
)
Start Training...
Epoch: 1	Learning Rate :3.467148803248856e-07	Train Loss: 1.0135997533798218	Val Loss: 0.5572163462638855
Epoch: 2	Learning Rate :1.0866160240210424e-06	Train Loss: 0.9996124505996704	Val Loss: 0.5565987825393677
Epoch: 3	Learning Rate :2.3189731795749714e-06	Train Loss: 0.9996630549430847	Val Loss: 0.5565091371536255
…
